ipynb/model_svr.pkl_06.npy (npy, 12248 bytes, 1 tensors)

array f8 [117, 13]
0	0x3fda003260feca7b	0.4062620112628463
1	0xbfdf98a9487d6d6b	-0.4936927040013958
2	0x3fef8efda72f56d1	0.9862049355822028
3	0xbfd07254350b7c28	-0.2569780843750231
4	0x3ff2d0e0251711da	1.1759950112183248
5	0xbfe9a83b8ccb7a41	-0.8017862081431489
6	0x3ff0a43a4e068b98	1.0400946662782413
7	0xbff002def83078b4	-1.0007009215255893
8	0x3ffa1375d411d34a	1.6297510417909558
9	0x3ff7dc16614a4dbb	1.49123228076938
10	0x3fe9099c30f0cde1	0.7824231105682281
11	0x3fda23ac578d765c	0.40842732000405646
12	0x3fef66a9580216c5	0.9812819212827085
13	0x3f9e30e8a258f980	0.029483446988018525
14	0xbfdf98a9487d6d6b	-0.4936927040013958
15	0x3fef8efda72f56d1	0.9862049355822028
16	0x400f218d1b437427	3.8913824205360643
17	0x3ffd668d106a4875	1.8375368729798798
18	0xbfe71937a3aa7c50	-0.7218282887078065
19	0x3fe63c8590507948	0.6948879068984661
20	0xbfebf7625c50f961	-0.873948269181522
21	0x3ffa1375d411d34a	1.6297510417909558
22	0x3ff7dc16614a4dbb	1.49123228076938
23	0x3fe9099c30f0cde1	0.7824231105682281
24	0xbfa5aae15d13f097	-0.042319338428542234
25	0x3fd05d7023d4931d	0.2557030057817416
26	0xbfd90cb8e662e77a	-0.39140150545755825
27	0x3fdd4b41439ac976	0.45771819688811577
28	0xbfe8bbe9632d9b14	-0.7729384362290568
29	0xbfd07254350b7c28	-0.2569780843750231
30	0xbff1330f2385bbd9	-1.0749656093209892
31	0x400647786575f805	2.7848976065279225
32	0xc000ecb6edfde269	-2.1155832856277823
33	0x40032dea44576a58	2.397419485013682
34	0xbfd3a28d81cf8f5f	-0.3067964332278645
35	0xbfdefe9894b9b9c6	-0.48428930782293056
36	0x3fd232f2cc424f27	0.2843596453396792
37	0x3fdce03359220d10	0.45118411735912023
38	0xbff45088d9726ba7	-1.2696617597600637
39	0x3fe5052112241722	0.6568761209789253
40	0xbfdf98a9487d6d6b	-0.4936927040013958
41	0x3fef8efda72f56d1	0.9862049355822028
42	0xbfd07254350b7c28	-0.2569780843750231
43	0x3ff946d5545082f9	1.5797932904753778
44	0x3fd01fddb02a0c04	0.25194494441547044
45	0x3ff14155cead77eb	1.078450972875994
46	0xbfeadd4f24ff2a8a	-0.8395152781098016
47	0x3ffa1375d411d34a	1.6297510417909558
48	0x3ff7dc16614a4dbb	1.49123228076938
49	0x3fe9099c30f0cde1	0.7824231105682281
50	0x3fd58d5e3d53087e	0.3367534254904355
51	0x3feab21cd01b537d	0.8342422546944445
52	0xbfd7810b4f8d6084	-0.3672512318494301
53	0xbfdf98a9487d6d6b	-0.4936927040013958
54	0x3ff87e985910ef64	1.5309070090433687
55	0xbfd07254350b7c28	-0.2569780843750231
56	0x3fe2a9731c1dfdb9	0.5831847714579715
57	0x3fb731a5566f080d	0.09060128555486831
58	0x3ff015671ee3291d	1.0052252966439206
59	0xbfe5a59127065da8	-0.6764608156399179
60	0xbfe4c0d72dcbadf8	-0.6485401052900093
61	0x3fc2897845832ee5	0.14482024568712074
62	0x3ff3c3698bee0fa3	1.2352080789578188
63	0x3fd4da8c9e9aea13	0.32583919037611614
64	0xbfcd2fa31deba7b1	-0.22801627121890314
65	0xbfd79b7512d55ebc	-0.36886336173254697
66	0xbfdf98a9487d6d6b	-0.4936927040013958
67	0xbfe72b9bdbc777ea	-0.7240733425676329
68	0xbfd07254350b7c28	-0.2569780843750231
69	0xbfdb024c0aefa6ce	-0.42201520030958484
70	0x40072b8e545a9994	2.896267565741434
71	0x3fc2df4653e5940e	0.14743880363963097
72	0x3f9e3177ea585aa5	0.02948558204487974
73	0xbfc8b05a726f4108	-0.19288187587381622
74	0xbfe3d31862de2769	-0.6195184641849042
75	0xbfdf10617810f8e4	-0.4853748009226264
76	0x3fd4f633a209336c	0.3275269586927638
77	0xbff6aacf1d65cd4b	-1.4167014263483277
78	0xbfdb0c455f1561c4	-0.4226239613103895
79	0xbfdf98a9487d6d6b	-0.4936927040013958
80	0xbff42f7856957d5b	-1.2615893728432954
81	0xbfd07254350b7c28	-0.2569780843750231
82	0xbfe2ba6415dcbc7a	-0.585252802562436
83	0xbff0186e3256b834	-1.005964466701255
84	0x3fe7210aa88916d8	0.7227834026059226
85	0xbfd78b374ab93896	-0.3678720693323013
86	0xbfe866075217a565	-0.7624546626440575
87	0xbff4a2f54cc5c144	-1.2897847174572954
88	0xbfd3790258ee514e	-0.30426081356678913
89	0x3fd8a08a278573e1	0.38479856357099435
90	0x3fc51ee7a49d3f9e	0.1650056413441207
91	0xbfda9e451a64dfd1	-0.41591003015082345
92	0x3fa800dfdbc876d5	0.046881671504008494
93	0xbfdefad4b2a39667	-0.4840595001718157
94	0xbfd07254350b7c28	-0.2569780843750231
95	0xbfd1a9563e70f83e	-0.2759605035570337
96	0xbfc8f489c4e8f0d2	-0.19496271242849744
97	0x3fee28a2c746efaf	0.9424604313021429
98	0x3ff042a308d645ad	1.016268763083967
99	0xbfe11ba7097fb68a	-0.534625547935961
100	0xbfe3126f5379c168	-0.5960003500349957
101	0xbff7b43b28d3e48e	-1.4815017313797259
102	0x3fdce03359220d10	0.45118411735912023
103	0x3fec03d62873f37f	0.8754683294388171
104	0xbfdb0d6a907bb654	-0.42269386396114794
105	0x3fe9b7cb46e9119d	0.8036857972115744
106	0xbfed02db91c4fb43	-0.9065988394794221
107	0xbfd07254350b7c28	-0.2569780843750231
108	0xbff19ca18321e932	-1.1007399675714393
109	0x3fcf8495b001863f	0.2462336644558025
110	0xbffc36e5b316622e	-1.7634026523211435
111	0x3ff20cc505f0d9b3	1.128117583471618
112	0xbfdaecedca677e3a	-0.42071099058191275
113	0xbfe524403dcdd9eb	-0.660675163947244
114	0xbfeb1f8fdb2b23eb	-0.8476027756342978
115	0x3fd047ee62b374f2	0.2543903316380486
116	0xbfec3a76a7a3c3e3	-0.8821366571629564
117	0xbfd754eecce40f8b	-0.36455888756631144
118	0xbfdf98a9487d6d6b	-0.4936927040013958
119	0xbfe72b9bdbc777ea	-0.7240733425676329
120	0xbfd07254350b7c28	-0.2569780843750231
121	0xbfdb024c0aefa6ce	-0.42201520030958484
122	0x3fdc47304386c237	0.4418450030744085
123	0x3fda2c62b018546b	0.40895907589703623
124	0xbfce17829efcc373	-0.23509247553877408
125	0xbfc8b05a726f4108	-0.19288187587381622
126	0xbfe3d31862de2769	-0.6195184641849042
127	0xbfdf10617810f8e4	-0.4853748009226264
128	0x3fdce03359220d10	0.45118411735912023
129	0xbfe6c689a0e01d65	-0.7117355482195477
130	0x3fe0a6dfea52ec9c	0.5203704430235976
131	0xbfdf98a9487d6d6b	-0.4936927040013958
132	0x3fef8efda72f56d1	0.9862049355822028
133	0xbfd07254350b7c28	-0.2569780843750231
134	0x3ff2d0e0251711da	1.1759950112183248
135	0x3fcdb0b777331a0c	0.23195546455663452
136	0x3ff095f1fc8301bd	1.0366077293148088
137	0xbfeea47a74374698	-0.9575779218523222
138	0x3ffa1375d411d34a	1.6297510417909558
139	0x3ff7dc16614a4dbb	1.49123228076938
140	0x3fe9099c30f0cde1	0.7824231105682281
141	0x3fd95533b5670ea5	0.3958253165730901
142	0x3fe316921f71968d	0.5965052236685594
143	0x3ff9f75f4c91b729	1.6228936186775604
144	0xbfdf98a9487d6d6b	-0.4936927040013958
145	0x3fef8efda72f56d1	0.9862049355822028
146	0xbfd07254350b7c28	-0.2569780843750231
147	0x3fd67a50c6459ae9	0.35121554720391984
148	0xc0033235da1689f8	-2.3995167768600787
149	0x3ff14155cead77eb	1.078450972875994
150	0xbff09b01feed447c	-1.037843700225749
151	0x3ffa1375d411d34a	1.6297510417909558
152	0x3ff7dc16614a4dbb	1.49123228076938
153	0x3fe9099c30f0cde1	0.7824231105682281
154	0xc00d8693ef274866	-3.6907118495810662
155	0x4007bc6cddd661f8	2.967004521470013
156	0xbfdb5a9470ca37b7	-0.42740355505599886
157	0xbfdf98a9487d6d6b	-0.4936927040013958
158	0xbff2003933c6cc3b	-1.1250545523187288
159	0xbfd07254350b7c28	-0.2569780843750231
160	0xbfe2740280c9f394	-0.5766613498122859
161	0x3fc1a0c999e0b618	0.13771934522212415
162	0x3fc58cd59c8f6ccd	0.1683604254202237
163	0xbfd46d9918967f28	-0.31918933297309815
164	0xbfec0b3776639cd3	-0.8763692199981058
165	0xbfeac934313ed6f3	-0.8370610200715575
166	0xbfd3790258ee514e	-0.30426081356678913
167	0x3fda76a161d8524e	0.41349062495399813
168	0xbfe42316f02edd59	-0.6292833987308014
169	0x3fe4d86682d99c95	0.6514160686173393
170	0xbfdf98a9487d6d6b	-0.4936927040013958
171	0x3fef8efda72f56d1	0.9862049355822028
172	0xbfd07254350b7c28	-0.2569780843750231
173	0x3ff2d0e0251711da	1.1759950112183248
174	0xbfe4dc1437ad9e1a	-0.6518651092018815
175	0x3fd37a7c7a6fb6a9	0.3043509669940741
176	0xbff10163a13f3cb8	-1.0628391550742844
177	0x3ffa1375d411d34a	1.6297510417909558
178	0x3ff7dc16614a4dbb	1.49123228076938
179	0x3fe9099c30f0cde1	0.7824231105682281
180	0xbfcad8f4998a9b5c	-0.20974595543995178
181	0x4002e61a99e6c1e3	2.362355425219208
182	0xbfdb4c1a4c58b2cb	-0.42651994186125525
183	0xbfdf98a9487d6d6b	-0.4936927040013958
184	0x3fb9755f438ec589	0.09944720649106932
185	0xbfd07254350b7c28	-0.2569780843750231
186	0x3fc29009a57fdf8a	0.14502068120031836
187	0xbfd97421dc2e1277	-0.3977131509966862
188	0x3fda2c62b018546b	0.40895907589703623
189	0xbfe2fdd4c73b528e	-0.5934852496380516
190	0xbfefb0679aaf9440	-0.990283777352154
191	0xbfea38b565b38a72	-0.8194224344591261
192	0x3ff2507da809bab4	1.144651085279901
193	0x3fdce03359220d10	0.45118411735912023
194	0xbfe58b541b381092	-0.6732578784581327
195	0xbfdb592a87cfe756	-0.42731726897146893
196	0x4007ba5573b5828b	2.965983299233192
197	0xbff658d473a2adf8	-1.3966869847307617
198	0xbfd07254350b7c28	-0.2569780843750231
199	0xbff4e934800353f9	-1.3069348335750404
200	0x3ff65a57ff1fe682	1.3970565763287657
201	0xbff382d406ee61e5	-1.2194404860257404
202	0x3ffa6a5bc7a3f33f	1.6509664343313515
203	0xbfec0b3776639cd3	-0.8763692199981058
204	0xbfdf5eed1c6becc7	-0.4901688363604077
205	0xc005451addb61a62	-2.6587426491926616
206	0x3fdce03359220d10	0.45118411735912023
207	0xbff320953d22a86f	-1.1954548252201922
208	0xbfdb6f7fcb1b584d	-0.4286803706612588
209	0x4005ff7ec9e92f86	2.7497535490310296
210	0xbff30f043c8be405	-1.1911661496253612
211	0xbfd07254350b7c28	-0.2569780843750231
212	0xbff19ca18321e932	-1.1007399675714393
213	0x3fda2d23e8995f48	0.40900514330632065
214	0xbffa5f9331219d32	-1.648333732527885
215	0x3fe84e8846bf1111	0.759586466003869
216	0xbfe866075217a565	-0.7624546626440575
217	0xbfee2c2cf682a1f8	-0.9428925337461456
218	0xbfb3ef2dc80bffa0	-0.07786832937199373
219	0x3fdbf613b38d5c0c	0.43689434561150686
220	0xbff2997e4cff3539	-1.1624739654246936
221	0xbfdb42104753b58d	-0.42590720143820066
222	0xbfdf98a9487d6d6b	-0.4936927040013958
223	0xbff2003933c6cc3b	-1.1250545523187288
224	0xbfd07254350b7c28	-0.2569780843750231
225	0xbfe2740280c9f394	-0.5766613498122859
226	0x3ff199e30507337a	1.1000700184260652
227	0xbfcaa73d7f61cfde	-0.20822876663044004
228	0xbfc59374e1616acd	-0.16856251721295337
229	0xbfec0b3776639cd3	-0.8763692199981058
230	0xbfeac934313ed6f3	-0.8370610200715575
231	0xbfd3790258ee514e	-0.30426081356678913
232	0x3fdc4558df853f4c	0.44173261478589576
233	0xbfef2174d066bd8a	-0.9728340216005773
234	0x3ff44ff93bbbc639	1.2695247968043886
235	0xbfdf98a9487d6d6b	-0.4936927040013958
236	0x3fef8efda72f56d1	0.9862049355822028
237	0xbfd07254350b7c28	-0.2569780843750231
238	0x3fca42b5f38dd8b5	0.2051608504513688
239	0xbfe17a85e82fbc43	-0.5462064299480364
240	0x3fb136977ab50016	0.06723925348069346
241	0xbfd9ebc365ac67b6	-0.405014848032461
242	0x3ffa1375d411d34a	1.6297510417909558
243	0x3ff7dc16614a4dbb	1.49123228076938
244	0x3fe9099c30f0cde1	0.7824231105682281
245	0x3fc131d921944d34	0.134333745380539
246	0x3fe787932f46a038	0.7352996753079486
247	0xbfdb861531352bc3	-0.43005876355590206
248	0x400b3002c74e2892	3.3984427996375155
249	0xbff70f5226113dfe	-1.441240452480883
250	0x400f218d1b437427	3.8913824205360643
251	0xbff552c6df9f8152	-1.3327091918254905
252	0x400270f287c47b1c	2.305150089915868
253	0xbff8b319a3b775c2	-1.543725623624923
254	0x3fef8a95354388d7	0.9856668510731436
255	0xbfefb0679aaf9440	-0.990283777352154
