ipynb/model_svr.pkl_07.npy (npy, 1016 bytes, 1 tensors)

array f8 [1, 117]
00000000: 0000 0000 00c0 67c0 221f 0811 56fb 55c0
00000010: 192f 4155 26de ff3f 0000 0000 00c0 6740
00000020: 14a2 cedf e891 5540 0000 0000 00c0 67c0
00000030: 450b 128d e0a8 6640 0000 0000 00c0 6740
00000040: 280e 7085 2595 56c0 0000 0000 00c0 6740
00000050: 0000 0000 00c0 67c0 505c 8e1d 7df9 4f40
00000060: 0000 0000 00c0 67c0 ca35 7e3d 3920 58c0
00000070: 0000 0000 00c0 67c0 f9ed ccc7 b969 25c0
00000080: 1931 0754 4364 2b40 0000 0000 00c0 67c0
00000090: 0000 0000 00c0 6740 f9b1 8b31 cdb7 2040
000000a0: fc74 d64f 604b 5440 0591 7998 5d68 64c0
000000b0: ac0a 42f6 af1b 6640 b08b b55b 7f90 4b40
000000c0: 0000 0000 00c0 6740 0000 0000 00c0 6740
000000d0: 4d81 5cc7 f910 4440 e1ff 4686 ad1a 3ec0
000000e0: b1ca 8f69 91b1 24c0 95c9 889c feed 3cc0
000000f0: 8446 482e 1a61 5940 48f4 bbd2 d7db 4940
00000100: 5af4 23fc 1e86 12c0 be13 a5b2 8181 46c0
00000110: 7b60 5162 9d99 5140 6be7 9aa7 c5af 3d40
00000120: 0000 0000 00c0 6740 0000 0000 00c0 67c0
00000130: 5056 daf8 0ff3 4a40 0000 0000 00c0 67c0
00000140: a1df 2695 d978 28c0 eebb 8674 e89a 5640
00000150: 761c 3d7e 9c20 59c0 4425 5451 aa61 39c0
00000160: 9745 c8e0 21c7 66c0 6376 ee59 6d31 2440
00000170: 7b6f 30c6 30f8 2d40 e239 08ef fc4a 52c0
00000180: f2b2 3830 ea30 5140 0000 0000 00c0 6740
00000190: 9e6a 8faf 5e46 66c0 664c ec2c 6679 3c40
000001a0: 0000 0000 00c0 67c0 03c3 16f5 c462 59c0
000001b0: 0000 0000 00c0 6740 2427 934f 1361 5440
000001c0: b1ca ce0a 4b1e 2240 0000 0000 00c0 6740
000001d0: d305 6f4e 555a 3040 d633 5508 7829 0e40
000001e0: e058 f1ab 878e 4bc0 89e3 22ec 6026 60c0
000001f0: f44f 0cbc 015b 4dc0 7ef9 4eab 1093 6440
00000200: d151 db5a bdaf 1440 0751 bcb8 6423 5dc0
00000210: 6b0a 8524 95c4 4dc0 11f3 8fdc 4e9b 1dc0
00000220: 0000 0000 00c0 6740 f0de c469 7fc2 5ec0
00000230: 3ead cf75 3ef9 44c0 97d1 0adc 964f 62c0
00000240: 0000 0000 00c0 6740 0000 0000 00c0 67c0
00000250: b27d 0137 f665 42c0 59f4 034b bb74 67c0
00000260: 007f 0746 2934 0ec0 0000 0000 00c0 6740
00000270: 0000 0000 00c0 6740 0000 0000 00c0 67c0
00000280: 0000 0000 00c0 6740 c23e 0ada f5d0 02c0
00000290: b8f1 6f06 2a7c 33c0 2b71 0b96 eb0c 19c0
000002a0: 6486 060c fe2d 5ec0 7d24 3c13 ae2c 2340
000002b0: e5f7 0d13 a400 3440 9a95 daec dfc8 33c0
000002c0: 0000 0000 00c0 67c0 c826 b20c 6d0d 46c0
000002d0: bdac 054a 568e 3040 4f4b 5aa5 da53 5fc0
000002e0: 0000 0000 00c0 67c0 0000 0000 00c0 6740
000002f0: 7948 b1c2 0200 5f40 0000 0000 00c0 6740
00000300: 7cf1 ca31 6b20 55c0 0000 0000 00c0 67c0
00000310: b92a 5524 50b9 5540 981b 11f9 d6af 52c0
00000320: 0000 0000 00c0 6740 0000 0000 00c0 67c0
00000330: 0000 0000 00c0 6740 0000 0000 00c0 6740
00000340: 0000 0000 00c0 67c0 5e44 0538 ff61 4740
00000350: 0000 0000 00c0 67c0 37c3 f0a0 7ed9 5dc0
00000360: 788f 5dd2 f615 6040 0000 0000 00c0 6740
00000370: 4d6b 521f f67a 1b40 0000 0000 00c0 67c0
00000380: 6c3b 17ab e43d 5b40 9cbd 916a a4a2 eb3f
00000390: 8844 2147 0b66 5940 457a 136f 852c 5740
000003a0: 651e 235a 4e02 f23f
-190.0 -87.92712808411719 1.9917357759722505 190.0 86.27983851603523 -190.0 181.27741101764892 190.0
-90.3304151148119 190.0 -190.0 63.94913072062684 -190.0 -96.5034936649819 -190.0 -10.70649551750738
13.695826173665909 -190.0 190.0 8.358987377455366 81.17775340979637 -163.26142524474577 176.86522972964065 55.12888666500601
190.0 190.0 40.13262264267778 -30.104210274061078 -10.346812533190446 -28.929666312594765 101.5172229486289 51.717523900770686
-4.630977573103417 -45.01177056370169 70.40023096034012 29.686609721487383 190.0 -190.0 53.898924929246846 -190.0
-12.236035023684794 90.42043793828609 -100.50955158203018 -25.38150509170852 -182.2228855048713 10.096537409171281 14.984747117435964 -73.17168784907656
68.76429372345936 190.0 -178.19905832301168 28.47421532410626 -190.0 -101.54327132437543 190.0 81.51680364008331
9.059166276686797 190.0 16.352864172082104 3.770248475170301 -55.11351537022142 -129.1993313485548 -58.71099043465793 164.59578481125567
5.171620769153791 -116.55302256002697 -59.53580147262695 -7.401668020521144 190.0 -123.03902668214482 -41.94721863403764 -146.48716547120122
190.0 -190.0 -36.796576381423975 -187.64786291859016 -3.775469348052752 190.0 190.0 -190.0
190.0 -2.3520314249397822 -19.485016252832537 -6.262617439697617 -120.7186307967873 9.587265587894075 20.002503577146758 -19.784666827550247
-190.0 -44.10489042948535 16.556004167924346 -125.31022008722105 -190.0 190.0 124.0001684886246 190.0
-84.5065426332348 -190.0 86.89551647488669 -74.74749590559657 190.0 -190.0 190.0 190.0
-190.0 46.765601160594755 -190.0 -119.39835380088776 128.6863796069481 190.0 6.870079507260766 -190.0
108.96708180683862 0.863603790419734 101.59443834542083 92.69564415838347 1.1255630036338513
